edge_recycler_model_final.tflite (tflite, 688016 bytes, 8 tensors)

arith.constant f4 [64, 3, 3, 32]
00000000: 0042 f73c 001d 8fb9 a027 633b e61a 78bd
00000010: 8ca0 99bc a8f3 223c d49b a8bc 6b24 a43d
00000020: 1bfd 04bd 80f0 a5bd 02c6 323d abf3 87bd
00000030: 5826 7e3c f3d9 86bd 74aa 863c ba85 0e3d
00000040: 0690 6dbd 60d7 603b d337 8a3d 4677 673d
00000050: ec17 dcbc 1099 1abd ea4d 513d 2e7e 87bd
00000060: 6079 51bd c0de 0b3d 2676 3ebd d0bc 0e3d
00000070: 6673 9fbd a0fe 843c 0052 f9ba a884 47bc
00000080: 006f ccbb ea01 5d3d 2002 56bd d0ca 30bd
00000090: c073 64bd f6a8 01bd e355 833d 9b9a 35bd
000000a0: 801a 563a e220 593d 18cf 61bc c9cb 9c3d
000000b0: e6fe 2ebd 16ad 66bd a61a 55bd 8acb 0e3d
000000c0: b9be 953d 142d f83c 9edf 94bd b300 87bd
000000d0: 2b9f 9c3d 001e fc3a 815c 863d 568b 12bd
000000e0: 66d1 21bd c606 9abd 4059 f33a 2021 293d
000000f0: b4b1 d03c 4c07 bcbc 2c27 ee3c f33c 943d
00000100: d63f b9bc cb7b 9cbd 301e 823b 0084 393a
00000110: 28ad 4abc f644 81bd 5671 5ebd 0056 cfbb
00000120: 9117 853d 70a5 043d a21b 4a3d 0070 ccbb
00000130: 6b65 a93d a862 7b3c fb5f 31bd 2cc3 f4bc
00000140: 83cc 89bd d205 633d b6b5 4ebd 58ad 7c3c
00000150: 5311 8abd 6064 58bd 36b1 f1bc 1a8f 303d
00000160: 36c3 653d 63cf a3bd f075 233d 2c4c da3c
00000170: 187b 153c 5370 993d ec87 bf3c 9669 453d
00000180: 7869 94bd fa6d 063d cc9d 983c c0c1 b1bc
00000190: bb8b 16bd bab3 113d d808 783c 6074 fdbc
000001a0: 8629 293d 00b2 90bb 162a 1fbd 3b2f 31bd
000001b0: c255 423d 4ea0 a0bd 5a52 193d 6cd1 d43c
000001c0: 80e6 243a aba9 02bd f63d 2bbd 9524 9f3d
000001d0: a302 83bd 003c a13b 13a5 9d3d 6cc8 f83c
000001e0: d683 4fbd 4615 743d 6c9a cb3c 86e9 1abd
000001f0: 0238 3c3d 9012 103d 405e 10bc c9e2 913d
00000200: c006 8f3a 927d 503d 5060 8e3b 8698 40bd
00000210: 58dc 87bd b4ac d33c 4b02 8c3d 16b1 13bd
00000220: 80c4 333c ecf8 813c 2b5e 63bd e031 f13c
00000230: 0005 94bc e055 c8bc bb80 87bd aa0e 303d
00000240: 008f d3bb 0062 363b 600a 033d f8ab 99bd
00000250: 712b 8d3d a983 a33d a359 973d d1c3 853d
00000260: 40bd 6dbc 6cc6 bcbc 1593 803d 74f9 8abc
00000270: d523 843d a8b6 2f3c d226 2f3d 09bb 943d
00000280: 28f1 583c fe21 9cbd 1bfe 24bd 406b fc3c
00000290: db18 72bd d835 35bc 6cad a63c ebde a03d
000002a0: cb3a 49bd 6575 903d 2cea bf3c b6d4 46bd
000002b0: 6010 5b3b d6c1 073d fbbb 03bd 506a 91bd
000002c0: 3a3b 213d fa24 373d a631 6abd f053 0b3d
000002d0: caee 173d 50e2 a3bb 1635 123d e0b4 fc3c
000002e0: 00d0 dfbb d334 9d3d 54bc 9dbc 764b fbbc
000002f0: ec88 94bc d361 96bd 26d8 1ebd 55a3 9b3d
00000300: 56ae 243d ebf6 893d 8c95 ea3c 18f3 8fbd
00000310: 86b1 79bd 16a4 f8bc d65c ddbc 309c 073d
00000320: 0baf 1dbd 983a 80bd 0008 d4bb a881 763c
00000330: 412e a73d 9315 8a3d 70dc 1abd 3815 83bd
00000340: a040 c23c 6031 62bd 56b4 703d d860 123c
00000350: dba7 09bd a809 49bc 10dc 90bd 6825 71bc
00000360: 80eb 7f3c 50d4 a63b 4036 f0bc 2afe 213d
00000370: 8072 2bbd b6f0 d1bc dda9 993d 0052 d4ba
00000380: d5a8 813d 20d2 163d 3052 283d 2bd9 3cbd
00000390: 8016 983c d6b5 febc 0bf4 a73d b49a e83c
000003a0: 5bc4 44bd 4be7 993d 26e9 4a3d 9345 943d
000003b0: 0049 ed3c b028 00bd 9138 aa3d 2607 2e3d
000003c0: ea23 413d 51ed 883d 684c 39bc 0c3a fb3c
000003d0: db17 aabd 18ca 71bc 306d 84bd d3b6 98bd
000003e0: 2272 663d 368b 15bd 80f6 6ebd 9b40 53bd
000003f0: 5866 2cbc d4cd d53c 96a9 9bbd 9b56 9ebd
0.030182838 -0.00027296692 0.003466107 -0.060572527 -0.018753313 0.0099457875 -0.020582117 0.08014759
-0.032467943 -0.08102512 0.043645866 -0.06638273 0.015512072 -0.06584539 0.0164387 0.0347955
-0.05799868 0.003430806 0.06748929 0.056510232 -0.026866876 -0.037743628 0.051099695 -0.06615864
-0.051141143 0.034147978 -0.046499394 0.034848034 -0.077856824 0.016234696 -0.001902163 -0.012177624
-0.006238818 0.053956904 -0.05224812 -0.043162167 -0.05577445 -0.031655274 0.06412866 -0.044336896
0.0008167401 0.053009875 -0.013782285 0.076560564 -0.04272356 -0.05631741 -0.052027367 0.03486208
0.07311768 0.030294932 -0.07269214 -0.0659193 0.076475464 0.0019235015 0.065606125 -0.035777412
-0.03950634 -0.07520823 0.0018566027 0.041291356 0.02547536 -0.022952698 0.029071413 0.07238188
-0.022613447 -0.07640799 0.003970884 0.00070768595 -0.012370385 -0.063119814 -0.054307304 -0.0063273907
0.064986356 0.032384336 0.04934276 -0.0062389374 0.08271297 0.015343346 -0.043304425 -0.029878221
-0.06728461 0.055425473 -0.05046626 0.015422188 -0.067415856 -0.0528301 -0.029503446 0.043105222
0.05609437 -0.0799854 0.039907396 0.02664765 0.009123586 0.07492127 0.023380242 0.048196398
-0.07246679 0.032819726 0.01862993 -0.021698833 -0.03675435 0.03557179 0.015138827 -0.030939281
0.041299365 -0.0044157505 -0.038858496 -0.043257933 0.047445066 -0.07843076 0.037432052 0.025978766
0.00062904507 -0.03190009 -0.041807137 0.07770649 -0.06396987 0.0049204826 0.07697501 0.030369006
-0.050662838 0.0595906 0.024853908 -0.03782036 0.04595185 0.035173953 -0.008811533 0.07123334
0.0010912046 0.050901003 0.0043449774 -0.047020458 -0.06633824 0.025839187 0.06836375 -0.036057554
0.010972142 0.015865766 -0.055509727 0.029442728 -0.01806879 -0.02445501 -0.0661635 0.042982735
-0.006456256 0.0027829409 0.031992316 -0.075035036 0.068930514 0.079840966 0.07390144 0.0653149
-0.014510453 -0.023043834 0.06278054 -0.016964652 0.06452147 0.010724701 0.04276163 0.072622366
0.01324109 -0.07623671 -0.040281396 0.03081286 -0.059105735 -0.011060201 0.020346366 0.07855018
-0.049128335 0.07053641 0.023427092 -0.0485427 0.0033426508 0.03314384 -0.032161694 -0.071003556
0.039363123 0.044712998 -0.057176255 0.034015596 0.03709296 -0.005001344 0.035695158 0.030847967
-0.0068302155 0.07676091 -0.01925484 -0.030675631 -0.018131696 -0.07342877 -0.038780354 0.075995125
0.040205322 0.06736549 0.028635763 -0.07028788 -0.060960315 -0.03035168 -0.027021807 0.033107936
-0.038497012 -0.06261176 -0.0064706802 0.015045561 0.08163119 0.06742396 -0.03780788 -0.064005315
0.023712456 -0.05522287 0.05876573 0.008934222 -0.033607345 -0.012270369 -0.070732236 -0.014718391
0.015620112 0.0050912276 -0.029322743 0.03954903 -0.041857243 -0.025627475 0.07503102 -0.0016198754
0.0633103 0.036821485 0.041094005 -0.046105545 0.018565416 -0.031092566 0.082008444 0.02839408
-0.04803882 0.07514819 0.049538754 0.07239833 0.028965473 -0.031288803 0.083115704 0.042487286
0.04715339 0.066858895 -0.011309721 0.030667327 -0.08305331 -0.014757656 -0.06466138 -0.07456746
0.05626119 -0.036509715 -0.05834055 -0.051575284 -0.0105224475 0.026099123 -0.07600705 -0.077313624

arith.constant1 f4 [32, 3, 3, 16]
00000000: 558c ee3d b7d1 ba3d 4b7f 973d 06c8 99bd
00000010: 8409 79bd c231 423d 359e 9c3d 70b2 a6bd
00000020: 301a 89bd bbb9 ac3d 1444 d9bd 0a14 563d
00000030: 3b1c 9bbd c4b1 843c 1cc1 63bd 358e d3bd
00000040: 6e22 4bbd 5e72 87bd 6a45 7bbd f437 5fbd
00000050: 08b0 7f3c c0c0 aabc c0a0 9abb 5325 e3bd
00000060: af85 de3d 6b12 923d 81c5 c3bd c027 c6bd
00000070: 3269 a7bd 25c7 853d 1c13 cc3c 1459 b83c
00000080: 6ca7 85bc 10ed c6bc 3040 3fbc 361c 83bd
00000090: 4cf2 b73c d01e a4bd 2c7a 68bd 08e9 eebc
000000a0: d098 1dbc 7c73 e93c fcd2 a7bd 2c68 88bd
000000b0: 7ab4 aebd 7286 643d 7a90 c6bd 6bc5 b63d
000000c0: 4563 abbd e553 903d 149a e7bc bc4a eebd
000000d0: 4829 b4bc 8d1d e6bd f476 f23c 8840 d7bc
000000e0: 2b01 953d a94f ea3d f1fc a23d 1a26 45bd
000000f0: c85c 6dbd d1e1 b43d f8a8 e6bd e660 6a3d
00000100: 9b0b c23d 9f28 a3bd 2444 e23c a840 19bc
00000110: 9c10 c63c e456 e73c 4863 bfbd 3fca 84bd
00000120: 3c47 d63c 6022 743b 5806 9ebc 36ab 6f3d
00000130: e14f 8ebd b901 bb3d 00e5 643b e11d cc3d
00000140: eac3 553d 4045 18bc 48b3 a6bd 57cd 65bd
00000150: e0cc c2bc f6e2 043d fcb7 ccbd e4c2 24bd
00000160: 48bf b8bd 4e55 543d 6b1f 973d 0e11 32bd
00000170: 01eb dbbd 6b41 d6bd 8a6f 763d c0d2 8b3a
00000180: 40db b4bb 85d0 973d d059 cebb 9869 46bc
00000190: 7c89 993c 5c5d ccbc 8e6a 153d e1be aa3d
000001a0: f8c4 88bd b257 20bd 2cf0 22bd 68d9 5dbc
000001b0: aa4e 333d eab8 44bd d651 30bd 4cb1 a2bd
000001c0: 7da8 cb3d 6cd3 a03c f686 9bbd 3846 fdbc
000001d0: c034 2dbd b217 b0bd 604b 1cbd 980e 18bc
000001e0: 58ce 20bc ce3d 4c3d 0a16 b6bd ab46 d33d
000001f0: 138e 7dbd beb4 113d f0d6 8bbc ec91 24bd
00000200: 521c e2bd f674 c6bd 6f75 833d dd2e de3d
00000210: 275c a53d a711 b0bd aa8d 9dbd 19eb ec3d
00000220: 8c1a a9bc f278 28bd c09f b13a 462c 13bd
00000230: 07f8 d63d e221 29bd 9e02 593d 8279 703d
00000240: e467 eb3c 91a0 d5bd 60c2 9e3b 6a57 4fbd
00000250: 95b9 833d ce8e 0abd d624 6f3d 4194 b43d
00000260: 0cea 82bd 60f1 acbc a928 cabd d693 f0bd
00000270: 967d c9bd 1cb3 a2bd ad48 873d 511b b7bd
00000280: e47a a03c 1087 0ebd e318 ce3d d7a6 e2bd
00000290: 3ec6 103d 0cb6 8fbd 73e6 dbbd c86f 98bd
000002a0: a6b0 b6bd f81b b8bc b243 3fbd 0230 033d
000002b0: eaf2 3ebd 53e4 93bd 19dc d73d d17d b13d
000002c0: 5e0c 503d 87c7 cc3d 1b28 e1bd 9d58 efbd
000002d0: 2045 65bb d283 263d 3286 3e3d 9c8f f1bc
000002e0: 5e2d 4e3d ee5a 643d bcd8 aabd eafd 273d
000002f0: 41a0 b8bd a529 d63d 0c82 bcbd 388a 773c
00000300: 78a2 a4bd f011 b2bc 4915 8c3d a0d9 763b
00000310: 38fe 2dbd a7fa c23d 3225 b3bd 6464 bc3c
00000320: ef64 8f3d 9e1a 2d3d 60e2 6d3b 18b4 b7bd
00000330: 0027 1ebb 1e01 453d 6060 6bbb 84b1 35bd
00000340: 7426 61bd 1845 383c 7d8d 7fbd a8f9 f6bc
00000350: f821 a5bc 40d4 24bc 4b71 b73d 7a97 9ebd
00000360: a0f2 873b cead ccbd 6c4f b33c 0cac 05bd
00000370: d2d7 28bd 53e9 b2bd 7bf1 803d f6f7 35bd
00000380: f896 dcbc cb5d e33d e7a3 d1bd 8a49 a8bd
00000390: da41 1a3d 7d03 993d 88df 5ebd 5173 b5bd
000003a0: bc57 81bd 50d1 b3bd 6481 31bd ace2 bebc
000003b0: 13f7 903d 0749 bebd 1b62 883d 5234 133d
000003c0: 675c a23d 4da4 e83d 004d ecbd 9023 ad3b
000003d0: 0682 6b3d 2a1e 243d b8e2 693c 0925 983d
000003e0: a594 9d3d 7af0 093d 08f7 98bd 60f9 f9bb
000003f0: ef76 cc3d 44a6 8fbd c08b 243b a24f 41bd
0.1164786 0.09122031 0.07397326 -0.075088546 -0.06080009 0.047410734 0.07647363 -0.08139503
-0.06694448 0.08433863 -0.10608688 0.052265204 -0.07573744 0.016198047 -0.055604085 -0.10329858
-0.04959338 -0.06613611 -0.061345495 -0.05449672 0.015605934 -0.020843863 -0.00471887 -0.110911034
0.10865342 0.07132419 -0.09559155 -0.096755505 -0.08174361 0.065321244 0.024911456 0.022503413
-0.016315185 -0.024282962 -0.011673018 -0.06401865 0.022454403 -0.080136895 -0.056757137 -0.029163852
-0.009618953 0.02849745 -0.08194539 -0.06660494 -0.08530517 0.05579228 -0.096955255 0.08924373
-0.083685435 0.070472516 -0.028271712 -0.11635348 -0.02199234 -0.11236105 0.029597737 -0.026275888
0.072756134 0.11440975 0.07958401 -0.04813204 -0.05794981 0.088321336 -0.11262697 0.057221316
0.0947487 -0.07966732 0.027620383 -0.009353794 0.024177842 0.028239675 -0.09345108 -0.06483888
0.026157014 0.0037251934 -0.019290134 0.05851289 -0.069488294 0.09131188 0.0034926534 0.099666364
0.05218879 -0.009293854 -0.08139664 -0.05610403 -0.023779333 0.03244301 -0.0999603 -0.040224925
-0.09020859 0.051839165 0.073790394 -0.043473296 -0.10738183 -0.10461696 0.060164966 0.0010667667
-0.0055193007 0.07412819 -0.0062973276 -0.012110136 0.018742315 -0.024946861 0.03647857 0.083371885
-0.06678194 -0.039146133 -0.039779827 -0.013540603 0.04377619 -0.04802791 -0.043046795 -0.07943973
0.09944246 0.019632064 -0.07594101 -0.030917272 -0.042286634 -0.085982695 -0.03815782 -0.009280823
-0.009814821 0.04986363 -0.08890922 0.10316213 -0.06190307 0.03557276 -0.017070264 -0.040178224
-0.11040558 -0.09690277 0.06418883 0.10848782 0.08074217 -0.08597117 -0.07693036 0.11568279
-0.020642541 -0.041130967 0.0013551638 -0.035930894 0.10496526 -0.04129208 0.05298101 0.05870963
0.028736062 -0.10431016 0.0048449486 -0.050620474 0.06431881 -0.033827595 0.05838474 0.0881734
-0.06392297 -0.02111119 -0.098710366 -0.117469475 -0.09838407 -0.07944319 0.06605659 -0.08940757
0.019589849 -0.034796774 0.100633405 -0.110669784 0.03534531 -0.070171446 -0.10737314 -0.074431956
-0.08920412 -0.022474274 -0.04669542 0.032028206 -0.04661838 -0.07221284 0.10540027 0.08666576
0.050793044 0.09998994 -0.10993978 -0.116868235 -0.0034983829 0.040653057 0.046514697 -0.029487424
0.050336234 0.05575078 -0.0834212 0.041013636 -0.09014941 0.10457162 -0.09204492 0.0151086375
-0.08038801 -0.021737069 0.06839997 0.0037666336 -0.04247877 0.095204644 -0.08747329 0.022997089
0.070016734 0.042261712 0.003629826 -0.08969897 -0.0024132133 0.04809677 -0.0035915598 -0.044358745
-0.054968312 0.011246942 -0.062390793 -0.030148342 -0.0201578 -0.01006037 0.08957156 -0.077437356
0.004148796 -0.09994088 0.021888457 -0.03263478 -0.041221447 -0.08735909 0.06296059 -0.044425927
-0.026927456 0.11101874 -0.1023634 -0.082171515 0.037660457 0.074713685 -0.054412395 -0.088598855
-0.06315562 -0.087801576 -0.043336287 -0.023301445 0.07078376 -0.092912726 0.06659337 0.03593857
0.079277806 0.11359463 -0.11538124 0.0052837804 0.057497047 0.04006783 0.014275245 0.07428939
0.07694367 0.033676602 -0.074689925 -0.007628605 0.09983622 -0.070141345 0.0025107712 -0.047195084

arith.constant2 f4 [1, 64]
00000000: 80ba 82bd 48a3 0c3e b028 bb3c 0067 393c
00000010: c4f5 713e 6a7e 173e 3a25 013e 2ac0 29be
00000020: 8c43 983e fea0 803e e4eb 343e 0859 ef3d
00000030: f4d2 6cbd 2c3f efbd f117 13be 89be 9abe
00000040: 58ef 06be 0e68 edbd 848c 68be 807e 79be
00000050: 71d7 0ebe c797 22be c0cb 8b3b 347e d53d
00000060: 7089 6c3d a689 243e f02b d7bc f6db d4bd
00000070: ecff 403e b7d6 28be 8a79 043e 5435 363e
00000080: 5f99 68be ba77 873e 2c28 d83d 5027 523d
00000090: 48f0 443d c8c4 91be b4d7 1e3e 70e6 9ebd
000000a0: 352b 45be ee18 efbd 1a2e 8dbe 76eb 843e
000000b0: 04f8 5c3e c881 57bd 88b2 6c3e 3f5c 90be
000000c0: 542a 61be 8a13 f9bd b6dd e3bd c6cf 86be
000000d0: bcd5 3cbe ebdb 12be 2a5f 953e 92cf 31be
000000e0: 44d3 0cbe ccef 563e a0f6 4ebc 244b 873e
000000f0: 5067 60bd 286a f3bd 809b 90bc 2cb2 f4bd
-0.06383228 0.13734162 0.02284655 0.011316061 0.23628908 0.14794317 0.12611857 -0.16577211
0.29739034 0.25122827 0.1766811 0.11686903 -0.057818368 -0.11681971 -0.14364602 -0.30223492
-0.1317724 -0.115921125 -0.22709852 -0.24364662 -0.13949372 -0.15878211 0.0042662323 0.10424462
0.057748258 0.16068134 -0.026266068 -0.10393517 0.18847626 -0.16488157 0.12936988 0.1779378
-0.22714756 0.26458532 0.10554537 0.051307023 0.048080713 -0.28470445 0.15511972 -0.07758796
-0.19254763 -0.11674677 -0.27574235 0.25960892 0.21578985 -0.052614003 0.2311498 -0.28195378
-0.21988803 -0.1216193 -0.111262724 -0.26330394 -0.18440908 -0.14341705 0.29174167 -0.17364338
-0.13752466 0.20989913 -0.012632042 0.26424515 -0.054786026 -0.11885482 -0.017652273 -0.11948046

arith.constant3 f4 [64, 2304]
00000000: f8c4 8ebb 80da bc3b 1ce0 17bd e056 93bc
00000010: 9821 3bbd f024 2c3d 4020 f93c 4c8e 2ebd
00000020: 7012 4f3c ac9c 0fbc 4e02 c7bc 9bf4 b3bc
00000030: 3863 573c a0b8 b43a a044 973a a0ac dbba
00000040: 90ec 4d3c 246a 103c b8ec edbb b418 413c
00000050: d054 9ebb 40b7 4d3d 807a 3fbd 2493 73bc
00000060: f6d2 053d d443 ecbc 7670 293d a4ea d43c
00000070: 9203 1dbd 68b1 2a3d 9c28 5dbc 22f9 35bd
00000080: 1a3b 3bbd 982f a7bb 5010 39bd c167 0bbd
00000090: b6d7 2dbd 2879 81bc d0f5 233c 2a4c 47bd
000000a0: b8be 9e3b ce82 c0bc ca94 3dbd 1c9f 3dbc
000000b0: 5887 143c 63d2 31bd 46e4 04bd 64e2 a23c
000000c0: 2c24 0cbc a13d b3bc 4679 d9bc 0013 3b3c
000000d0: e0a2 8dba 729d 4abd 7061 0fbd 68a1 7c3c
000000e0: 6489 cf3c c449 23bd 488b 713c 2ae4 8abc
000000f0: 1c2e d83c 049d a53c 30c4 893c 1ca4 bc3c
00000100: 1470 073c 103f 00bc da15 c0bc aef2 2d3d
00000110: 009d 873c bc2e 913c 54ca 97bc e497 e43c
00000120: 20fc 4c3c 187d 06bc c015 c23c b8c8 ea3c
00000130: 2c94 7dbc 0ea2 023d 6cdd 253c f260 04bd
00000140: d458 b23c 96b9 afbc 7e26 0d3d a0b7 37bb
00000150: 98f9 733c 2e9f 3dbd e0ed 16bb a214 443d
00000160: 6816 2abd f03e 43bc 7c62 033d 206a 4b3d
00000170: b408 413d 8058 caba 1a3e 82bc 432e cebc
00000180: a8c4 43bd 30af 53bc e87a f13c f889 2dbd
00000190: c695 083d 001a 8b3c 3030 40bd a2a6 42bd
000001a0: 8824 243c 5ccf 0e3d 04b3 6bbc 4865 b6bc
000001b0: 5160 0cbd f02d 94bc 5cc9 63bc 2409 eb3c
000001c0: 1773 2cbd 5b8a 3dbd 5418 c1bc 22f1 31bd
000001d0: 161a 183d d827 81bc 96a4 2d3d 0006 e3ba
000001e0: 29ee b7bc eb85 13bd 3be9 abbc 0c9a 33bc
000001f0: f4aa 1a3c 2c5e 41bc 00df 1c3a 8460 1fbd
00000200: d035 bebc 3859 f03c 0d11 ffbc 904d 223d
00000210: 005b 12bb be65 8ebc 6cfc 063d 3ce8 ac3c
00000220: 4de1 30bd 60d5 8e3b b046 3bbb 26ec 3b3d
00000230: 4ac7 123d b007 12bb 003c 6b3c 08bf 6abc
00000240: 1036 46bc 444c 353d 3467 453d 8802 0ebc
00000250: 9c65 303c e02a 4b3d 7094 51bc f646 f9bc
00000260: 7768 3cbd ccb9 3abc 18c2 a9bc 67d2 a9bc
00000270: aef2 b4bc a53b 16bd 9078 15bb 407f 013a
00000280: f76b 42bd 6e84 3abd 54c7 1d3c e8b7 c1bb
00000290: 7816 033c 1e29 4e3d 5068 093b 7e4f 153d
000002a0: 00d9 10bd e07b d1ba fcce 31bc 2102 42bd
000002b0: c189 31bd a038 d13a c141 4cbd edcf 03bd
000002c0: bc84 10bd 0065 743c 2027 163b bc3b bc3c
000002d0: 98e0 c9bb b6ef 073d f052 cf3c e481 68bc
000002e0: 402c 57bb 64e7 c73c 000c 6bb9 3839 98bc
000002f0: e89a 1d3d c71b 48bd 41c6 c6bc b86f 153d
00000300: 7701 b6bc 20e3 eabb a4d0 99bc 30b2 013d
00000310: 8189 a2bc 7ccf 1c3d e851 6a3c 6c86 1c3d
00000320: bb89 0bbd a45a ac3c 2152 39bd 0022 14bd
00000330: 4fb8 e8bc 2696 3cbd 985e cebb a451 29bc
00000340: beb2 20bd 0226 263d c854 a13c 8087 9eba
00000350: 5860 c23b f65c 403d 08c3 033d 8886 2d3d
00000360: f9d7 c2bc 102f cb3c 1f67 28bd 58f2 d43c
00000370: c89d 8dbc 6757 c3bc 645c 3b3c bc8b a23c
00000380: ce9b 123d b831 ac3c 1045 09bc a6e6 a2bc
00000390: 4150 3fbd aa6a 83bc b814 ee3c 5863 d9bb
000003a0: e085 653c f65b 22bd da9c 2f3d f0c3 3d3d
000003b0: 894d bfbc 7045 103b 3498 ef3c 384a 94bb
000003c0: c09c ccbc c466 e03c 763b efbc e802 cb3c
000003d0: 3ab7 3a3d 5024 083d 8cd6 5bbc 199c 4bbd
000003e0: 46ff 393d 1327 f3bc 508b 52bb e487 8a3c
000003f0: 4c3d ff3c 683d 6e3c f71a 15bd 9b2a 9fbc
-0.0043569766 0.005763352 -0.03707896 -0.017985761 -0.045686334 0.042027414 0.030410886 -0.042616174
0.012638673 -0.008765381 -0.024293091 -0.021967223 0.013146214 0.0013787933 0.0011540838 -0.001675982
0.012568608 0.008814368 -0.007260885 0.011785675 -0.004831888 0.05022359 -0.046747684 -0.014866624
0.03267189 -0.028840937 0.041367017 0.025990792 -0.038333483 0.041673094 -0.013498452 -0.044427045
-0.04571066 -0.005102109 -0.045181572 -0.034034494 -0.042442046 -0.015804842 0.010007337 -0.04865662
0.004844513 -0.023499873 -0.046284474 -0.011573579 0.009065472 -0.04341353 -0.03244426 0.019883342
-0.008553546 -0.021879973 -0.026547085 0.011418104 -0.0010805987 -0.049466558 -0.035005033 0.015419342
0.025334068 -0.03986527 0.01474268 -0.0169545 0.026389174 0.020216472 0.016817182 0.023027472
0.008266468 -0.007827535 -0.02344792 0.042467766 0.016554356 0.01772248 -0.018529095 0.027904458
0.012511283 -0.008208536 0.023692012 0.028660163 -0.015477221 0.03189283 0.010123592 -0.032319017
0.021770872 -0.021450799 0.034460537 -0.0028033033 0.014891051 -0.046294384 -0.0023029968 0.04787124
-0.041525275 -0.011916861 0.032076344 0.049661756 0.04712744 -0.0015437752 -0.015898753 -0.025168544
-0.047794968 -0.012920186 0.029477552 -0.042367905 0.03334596 0.016980171 -0.046920955 -0.047522195
0.010018475 0.034865722 -0.014385942 -0.022265092 -0.034271542 -0.018088311 -0.013902988 0.028690882
-0.042101946 -0.046274524 -0.02357117 -0.043442853 0.037134252 -0.01576607 0.04239329 -0.0017320514
-0.02245243 -0.036016386 -0.020985236 -0.010962021 0.009440172 -0.0118022375 0.00059841573 -0.038910404
-0.02321902 0.029339418 -0.03113606 0.03962475 -0.0022332072 -0.017382499 0.032955572 0.021106832
-0.043183614 0.0043589324 -0.0028576069 0.045879506 0.035834588 -0.0022282414 0.014357567 -0.014327772
-0.01209785 0.044262186 0.048194125 -0.008667596 0.010766413 0.049601436 -0.012791738 -0.030429345
-0.045998063 -0.0113968365 -0.020722434 -0.02073021 -0.022088375 -0.036677975 -0.0022807457 0.0004939921
-0.047466245 -0.04553645 0.009630043 -0.005911816 0.008000962 0.05033218 0.0020966716 0.036452763
-0.035363197 -0.0015982352 -0.010852572 -0.04736531 -0.043344263 0.001596231 -0.049867395 -0.032180715
-0.035282835 0.014916658 0.0022911504 0.022977702 -0.006160807 0.03318759 0.025308102 -0.014191125
-0.0032832772 0.024402328 -0.00022415817 -0.018581972 0.03847781 -0.048854616 -0.024264457 0.036483496
-0.022217495 -0.0071681887 -0.018776245 0.031664073 -0.019840958 0.03828381 0.0143017545 0.038214132
-0.034066897 0.021039315 -0.04524434 -0.036165237 -0.028408198 -0.04604163 -0.0062978975 -0.010334406
-0.03923296 0.04056359 0.019693747 -0.0012094826 0.005931895 0.046963654 0.03216842 0.042364627
-0.023784624 0.024802715 -0.04111397 0.025994465 -0.01728715 -0.023845388 0.011435602 0.019842021
0.03579312 0.021019801 -0.008378282 -0.019885372 -0.046707395 -0.016042072 0.029062614 -0.006634157
0.014008969 -0.039638482 0.042874195 0.04632944 -0.023352401 0.0022014044 0.02924738 -0.004525449
-0.024977088 0.027392752 -0.029203158 0.02478166 0.045584895 0.033237755 -0.013417851 -0.049709413
0.045409463 -0.029681718 -0.0032126494 0.0169105 0.031157158 0.014541008 -0.03640267 -0.019429496

arith.constant4 f4 [32]
00000000: 0000 0000 0000 0000 0000 0000 0000 0000
00000010: 0000 0000 0000 0000 0000 0000 0000 0000
00000020: 0000 0000 0000 0000 0000 0000 0000 0000
00000030: 0000 0000 0000 0000 0000 0000 0000 0000
00000040: 0000 0000 0000 0000 0000 0000 0000 0000
00000050: 0000 0000 0000 0000 0000 0000 0000 0000
00000060: 0000 0000 0000 0000 0000 0000 0000 0000
00000070: 0000 0000 0000 0000 0000 0000 0000 0000
0.0 0.0 0.0 0.0 0.0 0.0 0.0 0.0
0.0 0.0 0.0 0.0 0.0 0.0 0.0 0.0
0.0 0.0 0.0 0.0 0.0 0.0 0.0 0.0
0.0 0.0 0.0 0.0 0.0 0.0 0.0 0.0

arith.constant5 f4 [16]
00000000: 0000 0000 0000 0000 0000 0000 0000 0000
00000010: 0000 0000 0000 0000 0000 0000 0000 0000
00000020: 0000 0000 0000 0000 0000 0000 0000 0000
00000030: 0000 0000 0000 0000 0000 0000 0000 0000
0.0 0.0 0.0 0.0 0.0 0.0 0.0 0.0
0.0 0.0 0.0 0.0 0.0 0.0 0.0 0.0

arith.constant6 f4 [64]
00000000: 0000 0000 0000 0000 0000 0000 0000 0000
00000010: 0000 0000 0000 0000 0000 0000 0000 0000
00000020: 0000 0000 0000 0000 0000 0000 0000 0000
00000030: 0000 0000 0000 0000 0000 0000 0000 0000
00000040: 0000 0000 0000 0000 0000 0000 0000 0000
00000050: 0000 0000 0000 0000 0000 0000 0000 0000
00000060: 0000 0000 0000 0000 0000 0000 0000 0000
00000070: 0000 0000 0000 0000 0000 0000 0000 0000
00000080: 0000 0000 0000 0000 0000 0000 0000 0000
00000090: 0000 0000 0000 0000 0000 0000 0000 0000
000000a0: 0000 0000 0000 0000 0000 0000 0000 0000
000000b0: 0000 0000 0000 0000 0000 0000 0000 0000
000000c0: 0000 0000 0000 0000 0000 0000 0000 0000
000000d0: 0000 0000 0000 0000 0000 0000 0000 0000
000000e0: 0000 0000 0000 0000 0000 0000 0000 0000
000000f0: 0000 0000 0000 0000 0000 0000 0000 0000
0.0 0.0 0.0 0.0 0.0 0.0 0.0 0.0
0.0 0.0 0.0 0.0 0.0 0.0 0.0 0.0
0.0 0.0 0.0 0.0 0.0 0.0 0.0 0.0
0.0 0.0 0.0 0.0 0.0 0.0 0.0 0.0
0.0 0.0 0.0 0.0 0.0 0.0 0.0 0.0
0.0 0.0 0.0 0.0 0.0 0.0 0.0 0.0
0.0 0.0 0.0 0.0 0.0 0.0 0.0 0.0
0.0 0.0 0.0 0.0 0.0 0.0 0.0 0.0

sequential_1_1/conv2d_3_1/convolution f4 [16, 3, 3, 3]
00000000: f85e 213d f419 1cbe 7cb6 c23d 8475 433d
00000010: e7a5 d7bd e402 2bbe bc8d 203d 8dbe d5bd
00000020: d0e6 eabc 66f7 14be 48d3 c13c c887 b23c
00000030: 0e34 183e 509a b53d a884 703d 807f c33d
00000040: fe88 8dbd a407 543d da5c b2bd 3472 cd3d
00000050: 209d 4bbc cef0 85bd ee11 16be 28c5 c93d
00000060: 0443 b13d 44f1 1a3e b524 87bd bc21 d73d
00000070: d4df 763d 240c 9f3d 53fe cabd e13d 10be
00000080: b018 4ebd 9554 cebd ccf1 0abe 64b5 58bd
00000090: c89e abbc 122a d9bd f055 b93d 0512 09be
000000a0: e435 2d3e 6054 253e c5b3 87bd d4b5 f83d
000000b0: e4ee d43d fc84 263e 3819 aebc 420d 33be
000000c0: d85e 81bd 9835 9fbc 5aae 21be f6a3 2ebe
000000d0: 1a1c 1c3e a039 343d 3408 63bd 7c24 3f3d
000000e0: a472 cf3d efd7 15be d31d 87bd 70e3 9abd
000000f0: e0c9 ec3d 3e84 13be 907d c2bc a8ac c33d
00000100: 34de 21bd 6c49 fd3d 1075 943c 0c0c 5a3d
00000110: 30c4 14bc acb3 0b3d 4c3d 593d 40df 92bc
00000120: 5495 1dbd cbcc b9bd 2e31 91bd d0cc 4abc
00000130: 6c9b 26bd 245b 14be b83b d03d 1172 3ebe
00000140: 3489 c03d a74c 8abd a272 16be 98dd ef3d
00000150: db64 91bd c005 12bc 00fa 16ba c824 ddbc
00000160: c4fc b43d 046f f3bd b447 1b3d 1aad 1cbe
00000170: 9c48 703d c0e4 debc 00d0 42b8 5857 133e
00000180: 9079 193c 8054 c93a a0ff dbbc afaf aabd
00000190: a066 ec3c e002 b53d 4ca8 a33d e4b0 253d
000001a0: a8a0 c2bd b2bf 023e 9bd9 a6bd 5c47 9c3d
000001b0: ac9e 2b3d 902d e43d 6e6d a3bd f0df f1bd
000001c0: 864c 063e 7016 10be 88be 70bd 607f 9a3c
000001d0: 000f f7bc 4c07 87bd a8bb c13d 0a23 053e
000001e0: caed 32be 7e0a 18be fe16 3f3e 4aab 28be
000001f0: f879 103d 0d02 12be 3ef5 253e d841 98bd
00000200: 7072 033e 74bb ef3d af48 21be 48f3 363d
00000210: f837 bc3d 1491 833d c831 ce3c 6013 9a3d
00000220: 7a7a 0abe e444 243e bccd 5a3d 7271 23be
00000230: 5a4f 03be afd1 e1bd 34dc 023e f0b6 7bbd
00000240: 1400 f83d 303d 54bc e052 c13c 94c5 393e
00000250: d48b fb3d dcdb 7d3d e65e 80bd 54c8 bbbd
00000260: 9046 3a3e 9c16 15be d441 7f3d 9f5b 3abe
00000270: 407e 68bd 5874 de3d 1680 28be c098 07be
00000280: be3b 1dbe 56e1 223e 78c0 b93d 8dea f9bd
00000290: 104b 393e c05f 1a3e b95d 3ebe f82c a0bd
000002a0: 88b0 463d d84a dfbc d084 7cbc 8158 36be
000002b0: 0419 133e d8fb 3e3e 3415 d33d 68f3 8ebd
000002c0: e734 25be 78e6 e03c d8e3 103d 2082 c3bc
000002d0: e4c3 98bd a437 333d 1882 00bd 9080 0ebc
000002e0: 329c 25be fca6 e9bd 9838 8abc 10bc eebd
000002f0: e011 053d 683e 70bd 9590 02be 7096 6a3d
00000300: 48ad b43c b7be 09be a480 773d 9cc1 3a3d
00000310: ce31 173e 30e1 063e 2120 e1bd 0871 673d
00000320: 011e 31be 68de da3d 088f 163e 329c 19be
00000330: 73db 22be 28d9 7ebd 7023 813d d044 053c
00000340: 809f f73b b0c4 1f3e e877 f3bc b0fa 39bd
00000350: 206b 3f3c 0103 3cbe 4e0a 03be a6e2 30be
00000360: 00e1 85bd e0f6 34bc 9468 a13d fbac 1bbe
00000370: f81f f63d 085e 3dbe c71e 9dbd 52da 23be
00000380: 9286 2d3e 14a3 25bd f02e 3e3c 00f5 323e
00000390: c02f c83d 5412 90bd dd39 a1bd d6a6 bcbd
000003a0: 40b1 fdbd c415 313e c0fa 163d 106a b3bc
000003b0: 229b 393e 4079 083c 9043 2c3d 906b 35bd
000003c0: ccb9 e43d fd87 3cbe f872 9ebd 214b ecbd
000003d0: eaf0 8fbd 265a 373e ec4b 0a3d 7780 00be
000003e0: 3808 f43d 4fd3 acbd f071 403c 90e7 5bbc
000003f0: c9a0 08be 003e 37bc 50ef 713c f0aa 1bbd
0.03939721 -0.15244275 0.095074624 0.047719494 -0.1052969 -0.16700321 0.03919767 -0.10436735
-0.028674513 -0.145475 0.023660317 0.021793261 0.14863607 0.088673234 0.05872026 0.09545803
-0.06910895 0.0517651 -0.08709116 0.10031548 -0.012427598 -0.065400705 -0.14655277 0.09852058
0.0865536 0.15131098 -0.06598798 0.10504481 0.060272053 0.077659875 -0.0991179 -0.14086105
-0.050316513 -0.100747265 -0.135688 -0.052907363 -0.020949736 -0.106037274 0.090495944 -0.1338578
0.16915089 0.16145468 -0.06626085 0.12144056 0.10397127 0.16261667 -0.02125226 -0.17485526
-0.06316918 -0.019434735 -0.15789166 -0.17054734 0.15245095 0.044000268 -0.055427745 0.046665654
0.10129288 -0.14633153 -0.065974854 -0.075629115 0.11561942 -0.14405915 -0.023741513 0.09554416
-0.03951855 0.1236752 0.018122226 0.053234145 -0.009079978 0.034106895 0.053036973 -0.01792872
-0.03847249 -0.09072264 -0.070894584 -0.012377933 -0.040675566 -0.14487892 0.101676404 -0.185982
0.094011694 -0.067529015 -0.14692166 0.117121875 -0.07099315 -0.008912504 -0.0005759299 -0.026995078
0.08837274 -0.11886409 0.03791018 -0.15300408 0.058662996 -0.027208686 -4.644692e-05 0.14388788
0.009367362 0.0015360266 -0.02685529 -0.0833429 0.02885753 0.08838439 0.079910845 0.0404519
-0.09503299 0.12768438 -0.08146974 0.07630798 0.04189937 0.11141503 -0.079798564 -0.11810291
0.13115129 -0.14071059 -0.058775455 0.018859565 -0.03015852 -0.06593189 0.09459621 0.13001648
-0.17473522 -0.14847752 0.18661115 -0.16471592 0.03527257 -0.14258595 0.16206834 -0.07434434
0.12836623 0.11705676 -0.15750383 0.044665605 0.09190363 0.06424156 0.025170222 0.07523227
-0.13523284 0.16041905 0.05341886 -0.15961245 -0.12823239 -0.11026322 0.12779313 -0.06145376
0.1210939 -0.012954041 0.023599088 0.18141776 0.122825295 0.061977252 -0.062681004 -0.09169069
0.1819098 -0.14559406 0.062318638 -0.18199013 -0.056761026 0.108620346 -0.16455111 -0.13241863
-0.15354821 0.15906271 0.090699136 -0.1220294 0.1809504 0.15075588 -0.1859044 -0.07821077
0.048508197 -0.027257368 -0.015412524 -0.17807199 0.14365011 0.18650758 0.103067786 -0.0698002
-0.16133462 0.027453646 0.03537354 -0.02386576 -0.07459238 0.043754235 -0.031374067 -0.008697644
-0.16172865 -0.11408803 -0.01687269 -0.11656964 0.03248775 -0.058653265 -0.12750466 0.057272375
0.022055283 -0.13451658 0.060425416 0.045594797 0.14765093 0.1317184 -0.10992456 0.05650428
-0.17296602 0.10686952 0.14703 -0.1500099 -0.15904026 -0.062218815 0.06305587 0.008134082
0.0075568557 0.15602374 -0.029720262 -0.04540509 0.011683255 -0.18360521 -0.127969 -0.1727396
-0.06537056 -0.011045188 0.07881275 -0.15202706 0.12017816 -0.18492901 -0.07671886 -0.16001251
0.16945866 -0.040438727 0.01160787 0.17476273 0.097747326 -0.07034746 -0.07872365 -0.09211509
-0.123873234 0.17293459 0.036860228 -0.02190116 0.18125585 0.0083296895 0.04205662 -0.044292033
0.111682504 -0.1841125 -0.07736772 -0.11537767 -0.070283726 0.17905483 0.03376381 -0.12549005
0.1191563 -0.084387414 0.011745915 -0.013421908 -0.13342585 -0.011184216 0.014766529 -0.038004816
